models/tst/v3/tst_model.pth (torch, 41695 bytes, 16 tensors)

input_proj.weight f4 [32, 7]
-0.051103365 0.09198626 -0.25237298 0.27153417 0.24470964 -0.006806956 -0.50777715 0.011659482
0.038436286 -0.14183006 0.050591286 -0.0033074324 -0.13817884 0.075626224 -0.03430197 0.059052937
0.10039964 -0.17108707 0.08528345 0.32770666 0.09227748 -0.03906648 0.05873989 -0.19359775
0.18144625 -0.10912978 -0.6204755 0.19939947 -0.28600994 0.18417372 0.09462346 -0.021426152
0.35254154 0.13664828 0.38011163 0.016307397 -0.111517854 -0.2703402 -0.13570172 -0.33286527
0.52719665 -0.06095255 0.23294125 -0.17996193 0.22190091 -0.21333182 0.5017351 -0.05829773
0.39491948 -0.09850528 0.11919193 0.24501556 -0.15873772 -0.6106791 0.3142112 -0.29123518
-0.14899477 0.185108 -0.17820132 0.027824875 -0.4235478 0.0054933405 -0.19416286 0.105158255
-0.33791992 0.13707438 0.095164254 -0.5570665 -0.1558245 0.607894 0.22235397 -0.13390462
0.14193735 -0.3133945 0.516526 0.224547 -1.017544 0.30516332 -0.29931337 -0.17269957
0.124447174 0.6892199 0.026714137 0.28978074 0.18453765 -0.14555407 -0.24213828 0.1747271
-0.29848704 -0.47648937 0.063438006 -0.19084822 0.06629354 -0.24809253 0.2453786 -0.49742708
0.550821 0.562385 -0.16649242 -0.09184732 -0.24078418 0.45210272 -0.5582111 0.43611103
-0.39799598 -0.053972557 -0.25522256 0.31032413 0.07029836 0.81771386 -0.6197735 -0.5203398
0.13847864 -0.23582427 -0.00017935081 0.09965071 -0.6121001 0.41967347 0.3199638 0.2723284
-0.007841489 -0.24657476 0.000114552735 -0.39682844 0.36443555 -0.23142317 0.16933128 -0.120938346
0.08160366 -0.102939576 0.35038513 -0.07992683 -0.49171188 -0.29659078 0.009695046 0.3239049
-0.11794154 -0.07117771 -0.31764916 0.8182999 -0.43713546 -0.39503288 0.20214957 -0.16885035
0.11875346 0.43976212 -0.8635169 0.2997727 -0.16139458 -0.26441288 0.07353257 -0.23902324
0.6009961 -0.20635241 0.06664338 0.054215007 -0.03879636 -0.13509972 -0.034903105 0.054890066
0.034930393 -0.20392092 0.1466637 0.20293899 0.3958344 -0.56612176 -0.58956546 0.27387837
-0.31733233 0.120769106 0.20325133 0.269471 0.18132675 -0.2369707 0.6414056 -0.42507678
-0.39804742 0.2549833 -0.069635436 0.2579494 0.3337834 0.020340016 -0.27154872 0.25265354
-0.10174646 0.19226068 0.12737772 0.2594521 -0.52485204 -0.018254848 0.17915453 -0.11865866
-0.14772795 0.33782467 0.11465803 0.45206285 -0.12206246 0.09486612 0.062129665 -0.032582488
0.6912162 0.22062257 -0.8402166 0.241351 -0.2621944 0.30441678 -0.38669524 -0.69998646
-0.053742353 -0.45397472 -0.003422931 0.016210794 0.17601293 0.09500086 -0.2824209 -0.5301983
0.1330472 0.19970582 0.10508994 -0.08657985 -0.028640332 0.8297253 0.20850216 -0.1631356
00000000: c351 51bd 4b63 bc3d 0837 81be 8706 8b3e
00000010: 2a95 7a3e e30c dfbb affd 01bf 6907 3f3c
00000020: 5e6f 1d3d e63b 11be cf38 4f3d 82c1 58bb
00000030: c17e 0dbe ece1 9a3d 3980 0cbd 7ee1 713d
00000040: 549e cd3d 7331 2fbe 17a9 ae3d 2bc9 a73e
00000050: fafb bc3d 2c04 20bd 3d99 703d 7d3e 46be
00000060: 0ccd 393e 6f7f dfbd 7bd7 1ebf 602f 4c3e
00000070: e56f 92be 0998 3c3e f2c9 c13d e685 afbc
00000080: 5380 b43e 87ed 0b3e fe9d c23e 1797 853c
00000090: 7963 e4bd 086a 8abe 64f5 0abe 516d aabe
000000a0: 5cf6 063f 62a9 79bd 2788 6e3e f147 38be
000000b0: fe39 633e a873 5abe b671 003f 9ac9 6ebd
000000c0: e332 ca3e 23bd c9bd e61a f43d 5ce5 7a3e
000000d0: 248c 22be 7755 1cbf 4ae0 a03e c71c 95be
000000e0: 1692 18be f48c 3d3e 687a 36be fef0 e33c
000000f0: 42db d8be 7b01 b43b a1d2 46be 365d d73d
00000100: d703 adbe 3a5d 0c3e 7ae5 c23d e99b 0ebf
00000110: 7590 1fbe f19e 1b3f c2b0 633e 4b1e 09be
00000120: 0658 113e 3e75 a0be 0c3b 043f a6ef 653e
00000130: e23e 82bf 5e3e 9c3e 9a3f 99be 28d8 30be
00000140: 29de fe3d b770 303f 9bd7 da3c 245e 943e
00000150: 70f7 3c3e 200c 15be 19f3 77be a9eb 323e
00000160: 4bd3 98be 6af6 f3be c9eb 813d b76d 43be
00000170: e8c4 873d f80b 7ebe 8744 7b3e c3ae febe
00000180: 9b02 0d3f 77f8 0f3f fd7c 2abe 731a bcbd
00000190: 2190 76be 027a e73e ece6 0ebf f249 df3e
000001a0: 21c6 cbbe 5412 5dbd 88ac 82be cee2 9e3e
000001b0: 96f8 8f3d b255 513f 7aa9 1ebf fd34 05bf
000001c0: 58cd 0d3e eb7b 71be 1e10 3cb9 ac15 cc3d
000001d0: 98b2 1cbf 71df d63e 4cd2 a33e a16e 8b3e
000001e0: 9779 00bc 187e 7cbe 083c f038 192d cbbe
000001f0: 4c97 ba3e 32fa 6cbe 2e65 2d3e 86ae f7bd
00000200: d21f a73d fcd1 d2bd ae65 b33e aeb0 a3bd
00000210: a9c1 fbbe bfda 97be f8d7 1e3c ddd6 a53e
00000220: 568b f1bd 9fc5 91bd e9a2 a2be 1a7c 513f
00000230: 38d0 dfbe c041 cabe 4c00 4f3e 1be7 2cbe
00000240: 0435 f33d 8028 e13e 720f 5dbf cf7b 993e
00000250: 9f44 25be 2061 87be 3e98 963d 82c2 74be
00000260: e1da 193f 0c4e 53be 537c 883d 8e10 5e3d
00000270: efe8 1ebd 9557 0abe 8ff6 0ebd 68d4 603d
00000280: 2c13 0f3d a5d0 50be 022f 163e 3dcf 4f3e
00000290: ceaa ca3e 5bed 10bf c3ed 16bf c939 8c3e
000002a0: 6279 a2be cb55 f73d 1e21 503e 1af8 893e
000002b0: b8ad 393e 72a8 72be 2833 243f aaa3 d9be
000002c0: dfcc cbbe 2c8d 823e 069d 8ebd f211 843e
000002d0: a8e5 aa3e 1ba0 a63c 6f08 8bbe ce5b 813e
000002e0: 7360 d0bd fcdf 443e 4e6f 023e e8d6 843e
000002f0: b45c 06bf 318b 95bc 4974 373e 5003 f3bd
00000300: ff45 17be 5bf7 ac3e d4d1 ea3d c874 e73e
00000310: e2fb f9bd 2b49 c23d ad7b 7e3d 3775 05bd
00000320: 8bf3 303f e2ea 613e 6f18 57bf b724 773e
00000330: 583e 86be 84dc 9b3e ebfc c5be 5032 33bf
00000340: f120 5cbd 606f e8be 4153 60bb 80cc 843c
00000350: bc3c 343e d08f c23d 7999 90be 13bb 07bf
00000360: 863d 083e af7f 4c3e 6539 d73d c750 b1bd
00000370: 219f eabc e168 543f 9781 553e 050d 27be

input_proj.bias f4 [32]
-0.19298577 -0.0801207 0.23456696 -0.28503114 0.39479637 -0.19466881 0.3855164 -0.34437883
-0.2736673 -0.040447973 -0.25631908 0.32888705 -0.3995628 0.2380799 -0.32490128 -0.20203374
0.043974295 -0.20595291 -0.17210792 0.251014 -0.58210003 -0.024506772 -0.0407219 -0.19364259
0.33621478 -0.019310735 -0.14913784 0.36161485 -0.08515702 -0.512372 -0.3516801 0.3803388
00000000: 109e 45be 5216 a4bd 5232 703e 9aef 91be
00000010: c022 ca3e 4357 47be 6862 c53e 6c52 b0be
00000020: 1f1e 8cbe c6ac 25bd 413c 83be e263 a83e
00000030: 7f93 ccbe 38cb 733e 7659 a6be efe1 4ebe
00000040: 641e 343d 52e5 52be 0f3d 30be e884 803e
00000050: 8204 15bf 6dc2 c8bc 02cc 26bd 3e4a 46be
00000060: 5824 ac3e 8c31 9ebc 97b7 18be 9525 b93e
00000070: ce66 aebd d02a 03bf 6a0f b4be c4bb c23e

layers.0.attn.in_proj_weight f4 [96, 32]
0.12407546 -0.0062753395 -0.0029451272 -0.06325989 0.039035343 -0.028724082 0.14655085 -0.024642175
0.22769885 -0.046768118 0.35159403 0.38634038 -0.1757597 -0.11229224 0.028650409 0.23331167
2.4355862e-05 0.031835563 0.08955471 0.06516094 0.027257558 0.018214207 0.00094163435 -0.16168374
-0.17598611 -0.012807997 0.09087992 0.3277979 0.3088086 -0.45771897 -0.16903089 0.29536313
0.016742192 0.00422795 0.012543692 -0.03702441 0.0025065504 -0.006672452 0.01008023 -0.02928345
-0.006820287 -0.051508266 0.064285144 0.008734144 -0.03451869 -0.023084773 0.0014419297 0.030185979
0.0013601803 -0.019662766 0.029020272 -0.025865614 0.00054585445 -0.0046926267 -0.0023753536 -0.0021594975
-0.00020531633 -0.004716744 0.022595955 -0.010956549 0.0649736 -0.00028959516 0.0032645923 0.03836573
-0.15647784 0.022594307 -0.024861278 0.11495601 -0.11862791 0.009262769 -0.08590578 -0.008053132
0.0994469 0.124926135 -0.47327515 -0.32551506 0.186365 0.11986787 0.13071597 -0.1655373
0.010640351 -0.07036958 -0.094298124 0.12769964 -0.24085976 -0.033281032 -0.0025097518 0.27810872
0.08487229 0.053099208 -0.14254534 -0.11665057 -0.4284356 0.5906899 0.0468058 -0.28917235
0.01654779 0.0014318586 0.033681482 -0.007882166 -0.0039098016 -0.002086351 -0.0031935335 0.01097697
0.03702135 -0.016470047 0.014562579 -0.037537675 -0.008974586 -0.024345117 3.2570882e-05 0.023817442
0.0011649003 -0.02939376 0.01832756 -0.0022545897 -0.0084553445 -0.0016107778 -0.002928823 0.012340883
-0.0027361633 0.0071719764 0.0035189195 -0.019963635 0.028647196 0.041141298 -0.0008046337 -0.00057198416
0.04510746 -0.006677992 -0.05068 -0.13057803 -0.018474732 0.010304065 -0.010932031 0.008375759
-0.37056178 -0.0797164 0.15969883 0.13319574 -0.062956125 0.0021916293 0.0076976777 0.008033289
-0.016529638 0.017285328 0.028225342 -0.38303772 0.08554707 0.0013835042 0.004303516 -0.08721226
0.13995454 0.00790988 0.07398787 0.0035141176 0.16454789 -0.21378107 0.2291907 0.13304067
0.013314082 0.0051656677 0.029457964 -0.036476605 -0.0024247786 -0.0050972807 -0.004778202 -0.005254203
-0.008909498 -0.030196758 0.056074593 -0.0033655893 -0.03804608 -0.014101106 0.014656901 0.008333249
0.0002901823 -0.021216122 0.024414897 -0.064696796 -0.0401458 -0.004860149 -0.002216673 -0.04148022
-0.000501013 -0.007173597 0.022022456 -0.011962397 0.042524017 -0.0033201016 -0.026538005 0.0625205
0.092750624 -0.008825496 0.011186772 -0.17005858 0.021420475 0.0029459295 -0.042522833 -0.0554501
-0.29293707 -0.11789539 0.3353275 0.31740937 -0.1627133 -0.068623014 0.047997184 0.11847206
-0.0068166605 0.07407022 0.05168098 -0.12772056 0.086557016 0.01612288 0.00566149 -0.08941392
-0.05836985 -0.013511066 0.089791656 -0.006919475 0.32674494 -0.18896805 -0.11648385 0.18937287
0.005085838 -0.0017103909 -0.033161227 0.008441571 -0.008418975 -0.002726315 0.0032181756 -0.019997684
-0.027476894 -0.01372385 0.026671356 0.02275267 0.016520962 -0.00966704 -0.0027220582 0.013809324
0.001068102 -0.012597666 0.006990645 -0.01493001 0.0034369584 0.00063831906 0.0008658089 -0.005200467
0.0033756376 0.0013777176 0.00055760104 0.0029953683 0.016553389 -0.017019752 0.0040145405 0.013980335
00000000: 461b fe3d 5da1 cdbb 0903 41bb 678e 81bd
00000010: 86e3 1f3d c44e ebbc 6d11 163e 63de c9bc
00000020: e329 693e ed8f 3fbd 2204 b43e 68ce c53e
00000030: 5afa 33be 79f9 e5bd 43b4 ea3c 41e9 6e3e
00000040: d14f cc37 0266 023d 7668 b73d 1973 853d
00000050: 3e4b df3c f635 953c 03d8 763a 6c90 25be
00000060: b435 34be a2d8 51bc 401f ba3d 20d5 a73e
00000070: 291c 9e3e 245a eabe 6f16 2dbe d639 973e
00000080: ec26 893c 9d8a 8a3b 0f84 4d3c e8a6 17bd
00000090: f044 243b 96a4 dabb 8d27 253c d9e3 efbc
000000a0: b77c dfbb 55fa 52bd eea7 833d a819 0f3c
000000b0: 7863 0dbd 471c bdbc 22ff bc3a 9648 f73c
000000c0: 1448 b23a cf13 a1bc ecbb ed3c 20e4 d3bc
000000d0: ac17 0f3a 9bc4 99bb d2ab 1bbb 5b86 0dbb
000000e0: 2f4a 57b9 eb8e 9abb 271b b93c 1983 33bc
000000f0: e110 853d ced4 97b9 c5f2 553b 6225 1d3d
00000100: ba3b 20be b217 b93c e1a9 cbbc 0e6e eb3d
00000110: 31f3 f2bd dec2 173c 5fef afbd 49f1 03bc
00000120: d1aa cb3d 46d9 ff3d 1f51 f2be e9a9 a6be
00000130: 77d6 3e3e 497d f53d 68da 053e 9c82 29be
00000140: de54 2e3c ed1d 90bd 601f c1bd b2c3 023e
00000150: f1a3 76be b151 08bd a67a 24bb 4464 8e3e
00000160: 86d1 ad3d 8e7e 593d 68f7 11be 7ee6 eebd
00000170: e95b dbbe 7437 173f 70b7 3f3d 660e 94be
00000180: 3b8f 873c 34ad bb3a 98f5 093d 3324 01bc
00000190: cb1d 80bb 29bb 08bb 9a4a 51bb c0d8 333c
000001a0: b3a3 173d 31ec 86bc e297 6e3c 1bc1 19bd
000001b0: 240a 13bc 696f c7bc b89c 0838 cc1c c33c
000001c0: 91af 983a 2fcb f0bc ae23 963c bdc1 13bb
000001d0: 4988 0abc bc20 d3ba 7ff1 3fbb 6a31 4a3c
000001e0: 3451 33bb e602 eb3b ac9d 663b c78a a3bc
000001f0: 86ad ea3c c783 283d 0eee 52ba 35f1 15ba
00000200: 9ac2 383d 0fd3 dabb d595 4fbd 3fb6 05be
00000210: 5258 97bc 62d2 283c 431c 33bc 7b3a 093c
00000220: 46ba bdbe 5a42 a3bd 1788 233e 7764 083e
00000230: 24ef 80bd 70a1 0f3b cd3c fc3b 0e9e 033c
00000240: 2a69 87bc f699 8d3c d538 e73c 851d c4be
00000250: 4d33 af3d b356 b53a 8204 8d3b 579c b2bd
00000260: 3e50 0f3e 7198 013c f486 973d 1c4d 663b
00000270: 3e7f 283e 6de9 5abe f8b0 6a3e d03b 083e
00000280: 4f23 5a3c c344 a93b d451 f13c 7e68 15bd
00000290: 09e9 1ebb 1707 a7bb 7792 9cbb 732b acbb
000002a0: 25f9 11bc 315f f7bc 79ae 653d 3891 5cbb
000002b0: 35d6 1bbd 5308 67bc 8023 703c 2e88 083c
000002c0: 9c23 9839 6fcd adbc c001 c83c c17f 84bd
000002d0: ec6f 24bd e341 9fbb 9a45 11bb 2ae7 29bd
000002e0: 6a56 03ba 7e10 ebbb 7068 b43c eefd 43bc
000002f0: aa2d 2e3d 1096 59bb 3b66 d9bc bf0a 803d
00000300: 0af4 bd3d d098 10bc b948 373c d623 2ebe
00000310: fe79 af3c 7f10 413b 6c2c 2ebd a51f 63bd
00000320: d9fb 95be 2373 f1bd 0cb0 ab3e 7b83 a23e
00000330: 519e 26be 398a 8cbd b298 443d 7ba1 f23d
00000340: 4b5e dfbb 21b2 973d 6faf 533d 2ec9 02be
00000350: ce44 b13d 2114 843c 0584 b93b a51e b7bd
00000360: 3915 6fbd 855d 5dbc b0e4 b73d c3bc e2bb
00000370: 1d4b a73e d780 41be 168f eebd f6ea 413e
00000380: 1aa7 a63b 322f e0ba 11d4 07bd 844e 0a3c
00000390: beef 09bc faab 32bb 07e8 523b 2fd2 a3bc
000003a0: 3917 e1bc 00da 60bc e37d da3c cf63 ba3c
000003b0: f856 873c 8162 1ebc 8f64 32bb 8140 623c
000003c0: 8eff 8b3a 7166 4ebc c811 e53b 009d 74bc
000003d0: 983e 613b de54 273a 74f7 623a ae68 aabb
000003e0: cd39 5d3b 8894 b43a f92b 123a f14d 443b
000003f0: f99a 873c 026d 8bbc 688c 833b c60d 653c

layers.0.attn.in_proj_bias f4 [96]
0.340627 -0.012869279 -0.16735062 -0.012521044 -0.3011657 -0.025664357 -0.16879883 0.007177214
0.036342163 0.022501914 0.44818857 0.002835842 0.03545722 0.51437753 -0.0018195932 -0.34015775
0.04342078 -0.0845201 0.06480062 0.16111673 -0.038136803 -0.09226758 -0.034324702 0.09312104
-0.2273405 0.024665367 -0.030527458 -0.10922867 -0.07067166 0.027162557 0.02110967 -0.05212004
6.620035e-05 4.7253925e-06 -7.952216e-05 -2.9722346e-06 -1.8407587e-05 5.6558943e-06 4.462235e-05 2.564425e-06
-3.2447351e-06 -7.9051024e-05 9.163722e-05 -2.5477495e-06 3.4268163e-05 6.0106904e-05 1.9154172e-06 -3.1037718e-05
3.784042e-06 3.6941914e-05 6.891026e-06 1.7900165e-06 2.5558948e-05 -5.180797e-05 1.6646918e-05 1.0959193e-06
9.903371e-05 5.9509157e-06 4.780076e-06 6.0269096e-05 -3.007678e-06 6.906337e-06 4.4998783e-06 -1.509024e-05
0.3260394 0.028548017 -0.05350672 0.010353641 0.016686583 -0.1555837 0.07007687 0.084698126
-0.021200756 0.05329403 -0.008522697 -0.035770833 -0.40758607 -0.016267369 -0.07360979 -0.29763988
0.010680626 0.30533618 0.24091344 0.003984645 -0.027451105 0.007978694 -0.011352396 -0.023042815
-0.032413952 -0.026369886 -0.07669156 0.14908461 -0.061585493 0.032449607 -0.05525745 0.09835021
00000000: aa66 ae3e abd9 52bc f65d 2bbe 1125 4dbc
00000010: 6432 9abe 0f3e d2bc 9ad9 2cbe d62e eb3b
00000020: 85db 143d ef55 b83c f978 e53e 89d9 393b
00000030: 973b 113d 3fae 033f 6b7f eeba 2829 aebe
00000040: fdd9 313d e018 adbd 30b6 843d c9fb 243e
00000050: 5635 1cbd c9f6 bcbd 0f98 0cbd 3eb6 be3d
00000060: f3cb 68be 060f ca3c b814 fabc 48b3 dfbd
00000070: 4ebc 90bd 0384 de3c 30ee ac3c d37b 55bd
00000080: 0bd5 8a38 d08e 9e36 22c5 a6b8 9a76 47b6
00000090: fe69 9ab7 c3c7 bd36 e228 3b38 7c18 2c36
000000a0: 20c0 59b6 32c8 a5b8 5c2d c038 01fa 2ab6
000000b0: 29bb 0f38 4c1b 7c38 9e8a 0036 7f2e 02b8
000000c0: 59f1 7d36 14f2 1a38 7639 e736 8040 f035
000000d0: 6c67 d637 624c 59b8 fca4 8b37 8017 9335
000000e0: 51b0 cf38 faad c736 8a64 a036 73c9 7c38
000000f0: 84d7 49b6 fcbc e736 a9fd 9636 162c 7db7
00000100: a3ee a63e 88dd e93c dd29 5bbd 51a2 293c
00000110: 4db2 883c 5551 1fbe 7684 8f3d 3676 ad3d
00000120: 35ad adbc d74a 5a3d c8a2 0bbc 7084 12bd
00000130: 1faf d0be 2543 85bc bbc0 96bd 4164 98be
00000140: cbfd 2e3c 0655 9c3e 03b2 763e a091 823b
00000150: 24e1 e0bc 11b9 023c 66ff 39bc 49c4 bcbc
00000160: 7ec4 04bd a905 d8bc 7710 9dbd a3a9 183e
00000170: 1241 7cbd e1e9 043d a355 62bd d66b c93d

layers.0.attn.out_proj.weight f4 [32, 32]
-0.05384767 0.036376275 -0.0038728558 -0.015432345 0.011339095 -0.07997292 0.038614318 -0.007754821
-0.02507558 0.04348764 -0.0017922631 -0.03670882 0.07871742 -0.0076994277 -0.10513967 0.057104394
-0.06994769 0.044029288 0.03779412 -0.00026133686 0.0020939494 0.016128397 -0.034021713 -0.024606757
0.025089094 0.035562247 -0.020034313 -0.060413413 -0.027292518 0.03199005 -0.007863496 -0.014148614
-0.0029509247 0.015393341 -0.0249157 -0.007658944 -0.0192096 -0.060130283 -0.016405232 0.011494693
0.045168675 0.018458422 -0.05972356 -0.00012938768 -0.00033561082 0.004312527 -0.043375842 -0.0020146754
0.029405557 -0.018969867 -0.079690084 0.03333623 0.029336052 0.010980942 -0.0011512586 -0.0032145306
0.01389239 -0.044081427 0.028240187 0.04418054 -0.013810522 -0.017164718 -0.041699167 -0.065304816
0.042970363 0.007720072 0.011059557 0.027092509 0.06358664 0.16010112 -0.005638682 0.023212167
0.025974069 0.08311766 -0.21755965 0.04292716 0.22085883 -0.08518916 -0.11455882 -0.28291082
0.04747998 0.1877449 0.12028052 0.03095471 0.049803574 0.030328855 -0.00082687626 -0.045876693
0.028769163 -0.07688973 0.02467388 0.2569204 0.034066334 -0.022205163 -0.030901702 -0.15033576
-0.1950339 0.0046882797 0.027778018 0.032421123 -0.06673768 0.083501995 -0.007985292 -0.06750997
0.03306419 -0.039988488 0.014743714 0.029598279 0.10516408 -0.016195841 0.02241374 0.18825518
-0.016361568 0.3505895 0.15752344 0.07020613 0.036518995 -0.079611674 -0.11682148 -0.054820154
-0.01187742 0.014847383 -0.023458563 0.028722858 -0.04602562 0.06994613 0.06108055 0.069567196
-0.06594823 -0.03546213 0.025741894 0.0075386707 0.02326786 0.078828916 -0.061667636 -0.026184674
0.05071955 -0.04225507 0.0014711061 0.01942886 -0.046120614 0.037293922 0.052673627 -0.10522609
0.0054254504 0.23465078 -0.045021966 -0.018748939 -0.015204177 -0.0050616898 0.06376021 0.03438675
0.0007419125 -0.014436024 0.030863937 0.16214456 0.0021818248 -0.047876634 -0.039660618 -0.07325801
-0.043602284 0.06047792 0.027032696 -0.014210428 0.039300192 0.050440952 0.00543897 0.10452227
0.0030604098 0.006804883 -0.051231984 0.011493302 0.000301635 -0.056968547 -0.17781208 -0.11660422
0.142462 -0.10825188 0.052647527 0.032044727 0.017407326 0.017339265 0.06262266 -0.03612026
0.015423623 -0.0863522 0.025137408 -0.05420736 0.00090701575 -0.052862592 -0.008029243 -0.013589104
-0.08757709 -0.07650891 0.069560744 0.030449277 -0.071165204 0.33660224 -0.07310838 -0.08958762
0.059721183 -0.059665177 -0.03999211 0.092628814 0.08339119 0.087418206 0.17925595 -0.16220103
-0.020099433 0.09357857 -0.008229314 0.017780216 0.024037069 -0.035193995 -0.05786256 0.00087799464
0.041971873 0.010768668 -4.307163e-05 0.17151058 -0.0074275574 0.04292971 0.021155115 -0.13321643
0.15180191 0.012408283 0.016575662 0.024116024 -0.07409061 -0.079558045 0.026284065 -0.046667755
0.034583777 0.03037867 0.04034748 0.035382707 -0.087402396 0.021820951 -0.058958583 -0.15280926
-0.020071544 0.020854745 0.046545833 0.046454262 0.034375075 -0.03991878 -0.07249066 -0.04237912
0.020404762 -0.013512088 0.018996708 0.3182975 -0.012201985 0.031382617 -0.0032888565 -0.1332656
00000000: 608f 5cbd 4aff 143d bdcf 7dbb f2d7 7cbc
00000010: 9dc7 393c d8c8 a3bd 0c2a 1e3d 271c febb
00000020: 4e6b cdbc 1820 323d 5fea eaba fd5b 16bd
00000030: 9936 a13d 7b4b fcbb 7853 d7bd 4ce6 693d
00000040: bc40 8fbd 0e58 343d 02ce 1a3d 0a04 89b9
00000050: a43a 093b b31f 843c 5a5a 0bbd 1c94 c9bc
00000060: a587 cd3c b8a9 113d 001f a4bc 0e74 77bd
00000070: 8f94 dfbc 0008 033d e5d5 00bc 97cf 67bc
00000080: 4d64 41bb 5a34 7c3c 031c ccbc e1f7 fabb
00000090: 735d 9dbc 2c4b 76bd 4464 86bc 3d54 3c3c
000000a0: ca02 393d 1e36 973c b1a0 74bd 3eac 07b9
000000b0: ecf4 afb9 1950 8d3b deaa 31bd a508 04bb
000000c0: ece3 f03c b266 9bbc 8e34 a3bd 928b 083d
000000d0: 2952 f03c 69e9 333c d4e5 96ba e0aa 52bb
000000e0: e89c 633c ba8e 34bd f757 e73c a7f6 343d
000000f0: 8745 62bc 069d 8cbc bfcc 2abd 88be 85bd
00000100: b101 303d a8f8 fc3b 2533 353c 1cf1 dd3c
00000110: b639 823d 8cf1 233e b1c4 b8bb 7127 be3c
00000120: 92c7 d43c 9739 aa3d f5c7 5ebe 64d4 2f3d
00000130: d128 623e a877 aebd d19d eabd b0d9 90be
00000140: 5e7a 423d 3340 403e a255 f63d bb94 fd3c
00000150: d5fe 4b3d 3874 f83c bac2 58ba 33e9 3bbd
00000160: 4fad eb3c 5d78 9dbd e020 ca3c 128b 833e
00000170: 2489 0b3d 9ae7 b5bc 9125 fdbc 9ef1 19be
00000180: f7b6 47be 24a0 993b ba8e e33c 03cc 043d
00000190: c4ad 88bd 1803 ab3d bed4 02bc ab42 8abd
000001a0: 516e 073d f8ca 23bd 9e8f 713c 1778 f23c
000001b0: 4460 d73d 24ad 84bc 059d b73c f7c5 403e
000001c0: b208 86bc 7880 b33e d34d 213e 3bc8 8f3d
000001d0: f194 153d 720b a3bd 1a40 efbd 198b 60bd
000001e0: 8399 42bc 7042 733c 2c2c c0bc 334c eb3c
000001f0: 5c85 3cbd eb3f 8f3d 992f 7a3d 3f79 8e3d
00000200: de0f 87bd bd40 11bd aae0 d23c f406 f73b
00000210: 3d9c be3c 0e71 a13d 3497 7cbd 3e81 d6bc
00000220: 4ebf 4f3d a713 2dbd 21d2 c03a 4629 9f3c
00000230: f8e8 3cbd 83c1 183d 4dc0 573d c780 d7bd
00000240: fac7 b13b 4b48 703e f468 38bd 6097 99bc
00000250: f11a 79bc 88dc a5bb b794 823d 1fd9 0c3d
00000260: e87c 423a 1385 6cbc 5ed6 fc3c 3909 263e
00000270: f2fc 0e3b 4a1a 44bd 2c73 22bd 4c08 96bd
00000280: 4f98 32bd b2b7 773d ac73 dd3c dbd2 68bc
00000290: 3df9 203d 2c9b 4e3d 6339 b23b c60f d63d
000002a0: 2891 483b 7ffb de3b a1d8 51bd 674e 3c3c
000002b0: c424 9e39 da57 69bd 5f14 36be 31ce eebd
000002c0: 8fe1 113e 29b3 ddbd efa4 573d 5541 033d
000002d0: cf99 8e3c 130b 8e3c 4f40 803d d6f2 13bd
000002e0: 5db3 7c3c 6cd9 b0bd f7ec cd3c 8908 5ebd
000002f0: ccc4 6d3a 7286 58bd 168d 03bc d5a4 5ebc
00000300: 9e5b b3bd b4b0 9cbd dd75 8e3d c370 f93c
00000310: 10bf 91bd 2157 ac3e d9b9 95bd b779 b7bd
00000320: 339e 743d 7963 74bd c4ce 23bd 2db4 bd3d
00000330: 00c9 aa3d 5108 b33d df8e 373e 0718 26be
00000340: 91a7 a4bc 1fa6 bf3d 3fd4 06bc d1a7 913c
00000350: 63e9 c43c 9427 10bd 4b01 6dbd 3929 663a
00000360: b3ea 2b3d 116f 303c d0a7 34b8 78a0 2f3e
00000370: de62 f3bb 10d7 2f3d 7e4d ad3c e369 08be
00000380: f671 1b3e 1c4c 4b3c afc9 873c f88e c53c
00000390: d1bc 97bd 54ef a2bd ae51 d73c b026 3fbd
000003a0: b8a7 0d3d b0dc f83c 6643 253d 75ed 103d
000003b0: 0700 b3bd dac1 b23c 8e7e 71bd 087a 1cbe
000003c0: 146d a4bc 92d7 aa3c d8a6 3e3d d346 3e3d
000003d0: e1cc 0c3d e081 23bd fc75 94bd ba95 2dbd
000003e0: e327 a73c ce61 5dbc fc9e 9b3c e4f7 a23e
000003f0: d6ea 47bc 0f8b 003d db89 57bb c776 08be

layers.0.attn.out_proj.bias f4 [32]
0.06726729 0.02118045 0.23231295 0.38841656 0.051953837 -0.37075996 0.016125448 0.005191636
0.17837024 0.3246894 0.14077517 -0.07555814 0.3562874 0.015019667 0.11911607 0.08862326
0.099581696 -0.08522912 -0.013192303 -0.11459968 -0.35066426 -0.09060363 0.014672213 0.647991
0.18922938 -0.49307662 0.039626848 -0.31611142 -0.3039098 0.07588813 0.11362389 0.100733764
00000000: 6fc3 893d a082 ad3c 72e3 6d3e 89de c63e
00000010: 8ccd 543d 40d4 bdbe 8419 843c 991e aa3b
00000020: b0a6 363e b03d a63e 5e27 103e 3abe 9abd
00000030: 4d6b b63e 0d15 763c 20f3 f33d 1d80 b53d
00000040: 7df1 cb3d 9b8c aebd 8724 58bc 3db3 eabd
00000050: 448a b3be 658e b9bd b963 703c bde2 253f
00000060: 59c5 413e 8a74 fcbe c34f 223d 5bd9 a1be
00000070: 119a 9bbe 3c6b 9b3d a4b3 e83d 814d ce3d

layers.0.ff.0.weight f4 [64, 32]
2.455885e-16 -2.7531147e-05 -0.0075554405 -0.0019812854 4.860995e-05 0.0012088269 -0.0038612843 0.018201137
0.0017095294 1.4287798e-16 -0.011867369 2.7040762e-05 -7.248148e-05 0.00040189162 0.00044667712 0.00052968814
-9.617554e-18 7.390476e-09 -8.703603e-05 -3.297868e-05 0.00735339 3.0338113e-12 -6.148752e-18 -0.00312734
-0.01326512 0.0055597587 -4.7398058e-17 -0.0005546056 0.007189477 -0.00055288 -0.00029147734 -0.0039031042
0.005560549 0.038298383 0.1337709 -0.020261178 0.18132271 -0.06898722 0.42661917 -0.038474347
-0.20672013 -0.024314702 -0.50341874 0.20694207 -0.1595472 0.1813982 -0.4736921 -0.14631797
0.035986062 -0.058379967 -0.09554506 0.26903963 -0.17204845 -0.021979928 -0.009122728 -0.26337633
0.16190954 0.13328545 0.00335174 0.30831155 -0.12876679 -0.22187194 -0.13008119 0.08802151
-9.183604e-17 -9.7506145e-09 -0.0040566227 -0.0005653811 9.377785e-06 7.8673715e-05 -0.0007563958 0.014406029
-0.0007568339 -3.4065647e-17 -0.0044530863 2.0699033e-06 -1.488238e-05 1.2875497e-05 6.748347e-07 8.224194e-05
1.0596172e-17 5.6536685e-08 -5.57992e-07 -2.6961184e-09 0.00086168176 2.8641398e-09 5.005001e-18 -0.0032502317
-0.0027364674 0.00576354 -3.818063e-18 -6.3146304e-05 0.0036102186 -9.5222924e-05 0.00018875906 -0.00012514956
-0.035891406 0.08954562 -0.19299492 0.0730346 -0.2679188 -0.114693165 -0.03106368 0.0384348
-0.05790164 0.02129215 -0.24520901 -0.14275208 0.20310512 -0.24324457 -0.09760748 0.21732837
0.030817704 0.0979172 0.18968518 -0.16535404 0.10631337 -0.005162588 -0.012095113 0.18325242
-0.14924976 -0.20947288 0.030278767 -0.21514271 0.10241625 0.29574677 0.3458264 -0.0130226305
-0.04188392 -0.014752917 0.29404712 -0.2623424 0.18835847 -0.16894652 0.4785547 0.24680682
-0.3132458 -0.014723969 -0.44961336 0.29383406 -0.2681495 -0.12988023 -0.6488974 0.13136609
0.005385887 -0.065930195 0.1933161 -0.012033283 0.016805416 -0.07773637 -0.0077845636 -0.48057967
-0.0050546373 0.18422075 0.010988911 0.369532 0.075570434 -0.22141173 -0.27302262 0.112837486
0.0016912563 -0.030536283 -0.034775652 -0.009506703 -0.027984908 0.02401244 -0.05237897 0.03108634
-0.0036430354 -0.00015628495 -0.03904804 -0.013403068 0.0118503515 0.020582907 0.014934536 -0.0065254155
0.008258021 0.06296293 -0.024273345 0.03203271 0.0016073609 0.023985386 0.025547368 0.012362505
-0.044601247 -0.0039668605 -0.014533108 -0.00512344 0.0040431665 0.007756936 -0.0076041166 -0.031777646
4.8696456e-38 -3.826595e-08 -0.0062981616 8.961957e-05 -5.048325e-05 0.0012984131 -0.0046407483 0.0001275064
-0.0057377582 1.5930373e-38 -0.021095008 -1.2896247e-05 0.00082165864 4.004414e-05 -0.002759366 6.826916e-05
5.299861e-38 -1.7075953e-11 -1.0806985e-08 4.0424616e-06 0.015503746 2.6741742e-17 3.5801175e-38 -0.0041996213
-0.005256835 0.012641667 -4.0235032e-38 -0.00034239166 0.0024155832 0.00010071697 0.0043484233 -0.00087641017
2.7099525e-34 -4.1385313e-34 0.0025868171 -0.0045048706 1.7447086e-06 0.0075428686 -4.228946e-06 0.0043533556
0.0034689654 -9.461072e-36 -0.007727351 -2.304424e-16 -0.00028214924 -0.00017495362 -0.0011198249 6.667802e-05
3.340348e-34 -1.2814371e-07 -6.317277e-06 -3.230376e-08 0.0058017233 1.1325967e-07 3.9559776e-35 -0.0037899849
-0.010901939 0.008791637 7.0544144e-34 -2.2833887e-05 0.005064327 -2.6358404e-05 -0.0028473272 -0.0016397604
00000000: 7792 8d25 b0f2 e6b7 a193 f7bb 74d8 01bb
00000010: 89e2 4b38 8071 9e3a 9a0d 7dbb 8d1a 953c
00000020: 4a12 e03a 23ba 2425 5a6f 42bc 98d5 e237
00000030: 3301 98b8 fbb4 d239 fd2f ea39 c5da 0a3a
00000040: 9d69 31a3 50ef fd31 1d87 b6b8 9752 0ab8
00000050: b5f4 f03b 497c 552c 52d9 e2a2 0ff4 4cbb
00000060: f255 59bc a32e b63b c095 5aa4 f462 11ba
00000070: b495 eb3b 26ef 10ba 6dd1 98b9 39cb 7fbb
00000080: 4435 b63b c4de 1c3d 3dfb 083e c5fa a5bc
00000090: a9ac 393e 2c49 8dbd d46d da3e 4797 1dbd
000000a0: 71ae 53be a02f c7bc 0de0 00bf 9fe8 533e
000000b0: 5760 23be 73c0 393e c587 f2be 61d4 15be
000000c0: 1f66 133d d51f 6fbd 21ad c3bd 90bf 893e
000000d0: 782d 30be 400f b4bc 7f77 15bc 43d9 86be
000000e0: 9dcb 253e fb7b 083e dea8 5b3b 03db 9d3e
000000f0: 71db 03be 6632 63be 0134 05be 9f44 b43d
00000100: 6ec2 d3a4 a883 27b2 6bed 84bb 1536 14ba
00000110: 4855 1d37 a1fd a438 dd48 46ba 4407 6c3c
00000120: 4366 46ba 9e19 1da4 32eb 91bb abe8 0a36
00000130: 56af 79b7 d703 5837 4a26 3535 4e79 ac38
00000140: 0277 4323 bed2 7233 ebc8 15b5 9e46 39b1
00000150: 7ce2 613a 7bd2 4431 e6a6 b822 d701 55bb
00000160: 4e56 33bb 14dc bc3b 96dc 8ca2 6a6d 84b8
00000170: 6b99 6c3b 6bb2 c7b8 a0ed 4539 943a 03b9
00000180: de02 13bd b263 b73d 76a0 45be 2a93 953d
00000190: a72c 89be 40e4 eabd 4279 febc cf6d 1d3d
000001a0: 452a 6dbd e06c ae3c 1218 7bbe 9a2d 12be
000001b0: cafa 4f3e 1b15 79be 6ee6 c7bd 548b 5e3e
000001c0: 6975 fc3c d088 c83d d53c 423e 9252 29be
000001d0: d3ba d93d ed2a a9bb 952a 46bc 86a6 3b3e
000001e0: eed4 18be 0f80 56be 2d0b f83c 5f4e 5cbe
000001f0: 9cbf d13d 1f6c 973e 2810 b13e df5c 55bc
00000200: 798e 2bbd 38b6 71bc 588d 963e be51 86be
00000210: 0be1 403e 5100 2dbe 1f05 f53e edba 7c3e
00000220: c161 a0be cd3c 71bc b933 e6be 6b71 963e
00000230: e44a 89be 53ff 04be 241e 26bf d584 063e
00000240: 187c b03b 6906 87bd a8f4 453e 3f27 45bc
00000250: 83ab 893c 3f34 9fbd a715 ffbb 8a0e f6be
00000260: 5fa1 a5bb 5da4 3c3e d50a 343c 4c33 bd3e
00000270: acc4 9a3d c2b9 62be 9fc9 8bbe 5717 e73d
00000280: 25ad dd3a 3a27 fabc ea70 0ebd 01c2 1bbc
00000290: 9b40 e5bc bdb5 c43c 558b 56bd c8a8 fe3c
000002a0: febf 6ebb 6ce0 23b9 d6f0 1fbd 8b98 5bbc
000002b0: fa27 423c 7c9d a83c fcaf 743c 27d3 d5bb
000002c0: a74c 073c b5f2 803d e5d8 c6bc bb34 033d
000002d0: 15ae d23a 007d c43c b748 d13c 1b8c 4a3c
000002e0: ccaf 36bd 70fc 81bb 461c 6ebc 88e2 a7bb
000002f0: 8a7c 843b e52d fe3b f42b f9bb 4729 02bd
00000300: 7a90 8401 db59 24b3 cf60 cebb 24f2 bb38
00000310: fabd 53b8 842f aa3a 6b11 98bb 3db3 0539
00000320: ce03 bcbb 6677 ad00 70cf acbc f65c 58b7
00000330: 9464 573a 11f5 2738 7bd6 34bb ba2b 8f38
00000340: a446 9001 a133 96ad 9fa9 39b2 7ba4 8736
00000350: 6d03 7e3c 27a6 f623 8eeb 4201 fa9c 89bb
00000360: 8741 acbb ff1e 4f3c 730f 5b81 0883 b3b9
00000370: c34e 1e3b 0338 d338 387d 8e3b e4be 65ba
00000380: 741b b407 bb86 0988 9787 293b 989d 93bb
00000390: bb2b ea35 2b2a f73b 5fe6 8db6 98a6 8e3b
000003a0: 9557 633b fa36 4985 b835 fdbb 4cd7 84a5
000003b0: 6eed 93b9 c173 37b9 17c7 92ba 7dd5 8b38
000003c0: 1401 de07 e097 09b4 fff8 d3b6 5cbe 0ab3
000003d0: 621c be3b 2939 f333 fa55 5206 6561 78bb
000003e0: 0c9e 32bc cc0a 103c 526c 6a08 668b bfb7
000003f0: a7f2 a53b 3e1c ddb7 399a 3abb 3bed d6ba

layers.0.ff.0.bias f4 [64]
-0.03232578 -0.08073917 -0.01893325 0.0050967336 -0.06515588 -0.059008714 -0.019536706 -0.024513194
-0.0038887572 -0.104272924 -0.09651388 -2.1016816e-05 -0.17292511 -0.0479952 -0.23730987 -0.027001055
0.022685 -0.030966299 -0.04815183 -0.4444823 -0.10943632 -0.049616516 -0.047010466 -0.0050944462
-0.09450241 0.039051145 -0.09338611 -0.19991879 -0.047372438 0.0012813939 -0.027225338 -0.06393836
-0.086227156 -0.004933946 -0.09893231 -0.04797094 -0.0043721437 -0.012325059 -0.065401495 -0.027447155
-0.08831025 -0.55773944 -0.07860766 -0.06504603 -0.027382934 -0.054685354 -0.050030544 -0.0046292366
-0.03213835 -0.28439415 -0.03763779 -0.020989552 -0.24540114 -0.028221622 -0.13105513 -8.1406295e-05
-0.024892101 -0.059072684 -0.14405897 -0.10674178 -0.13587236 -0.016199516 -0.0071304473 -0.26353788
00000000: 0968 04bd 945a a5bd e719 9bbc 8002 a73b
00000010: 7270 85bd 1fb3 71bd 710b a0bc e5cf c8bc
00000020: 85da 7ebb 0b8d d5bd 12a9 c5bd 454d b0b7
00000030: 4813 31be 9d96 44bd 5c01 73be 5131 ddbc
00000040: e5d5 b93c 09ad fdbc da3a 45bd 2f93 e3be
00000050: 2620 e0bd b03a 4bbd 0c8e 40bd 50ef a6bb
00000060: 7b8a c1bd 18f4 1f3d 3841 bfbd 83b7 4cbe
00000070: 9a09 42bd 72f4 a73a ac07 dfbc 1df2 82bd
00000080: dd97 b0bd f0ac a1bb 069d cabd 2d7d 44bd
00000090: 3344 8fbb 0bef 49bc 38f1 85bd dbd8 e0bc
000000a0: 01dc b4bd 03c8 0ebf 0efd a0bd da36 85bd
000000b0: 2d52 e0bc c0fd 5fbd d4ec 4cbd dab0 97bb
000000c0: 81a3 03bd 1c9c 91be 152a 1abd 48f2 abbc
000000d0: 704a 7bbe 0831 e7bc 5133 06be acb8 aab8
000000e0: 85ea cbbc 33f6 71bd 3284 13be 6f9b dabd
000000f0: 2022 0bbe d9b4 84bc 87a6 e9bb 70ee 86be

layers.0.ff.3.weight f4 [32, 64]
-2.4454968e-05 0.15766379 -8.290146e-06 -0.08312574 0.057793513 -0.030241618 1.2517411e-05 -6.2185883e-17
-1.1643751e-05 -0.006232073 -0.048647184 -3.793936e-11 -0.04749963 0.07316361 0.08974947 -0.01856445
0.13963953 -0.007083421 -3.0549054e-05 0.019933442 0.015728585 0.042166226 -0.0017041288 2.7588526e-06
0.07179926 0.093713865 -0.04856947 0.07720411 -0.0029945532 0.055262327 -0.0004281735 0.0012230681
7.455955e-05 -6.124843e-24 -0.10096039 0.024589693 -7.729424e-30 1.7134145e-10 0.037678268 -2.8631255e-05
-0.05051855 -0.0380244 -0.0069496213 -0.020773916 0.018829133 0.0049285255 0.0060635563 -4.6043898e-11
-0.0031478372 -0.010444731 -0.027718427 -7.528133e-05 0.016426777 0.11160947 0.08419951 -5.2477675e-38
-5.40435e-08 -0.029508455 -0.04018705 -0.009183467 0.007309074 2.3151955e-08 2.6462794e-20 0.047746267
2.4987173e-07 0.03894862 1.5357525e-06 -0.05499032 0.052865766 -0.04261583 -2.402327e-05 -3.8235603e-06
-3.312259e-05 -0.004213282 0.05612505 4.5262483e-12 -0.023860408 -0.07360318 -0.013443396 0.012523096
-0.10674452 0.0016637956 0.0013884024 -0.041929998 -0.024441032 -0.0013277844 -8.9099456e-05 -3.7646398e-06
0.0037962534 -0.016150193 -0.08153442 0.0554047 -0.004732892 -0.024619559 -0.00016897598 -0.06156161
-0.0034960934 -1.7293148e-26 -0.015830077 0.0060542105 -5.9050223e-30 3.0958052e-08 -0.024335226 3.1837346e-05
0.040128283 0.035905845 -0.0053189173 0.0005732914 0.0053673303 -0.0027289458 -0.05675258 1.04099804e-07
-0.0029333406 0.068339296 -0.003763091 1.5397602e-05 -0.022396486 0.045140155 -0.03935727 2.7042134e-38
2.3816892e-08 -0.038866896 0.019641977 0.04654191 -0.03551279 -4.3870372e-08 5.458293e-18 -0.03581548
-0.0064808 -0.28049216 0.00052607176 0.07580276 -0.26403955 -0.0042412113 0.0007742112 -0.0014103699
-0.001397911 0.012356641 -0.00045718983 5.287157e-07 0.10031413 0.04195266 0.24489015 -0.035390794
0.06507536 0.0021234546 -0.0046618744 -0.20851637 -0.077919364 -0.1248517 -0.015426086 -0.0015858342
0.019696157 0.14671773 0.09466566 0.14478025 -0.018742118 0.07497082 -0.0029324796 0.03268079
-0.009522922 5.5276196e-06 -0.014714888 -0.015160877 8.901266e-06 -0.0003981373 0.07886385 0.0030586475
0.13902117 -0.167041 0.04712276 0.0065811267 -0.030821564 0.008211747 -0.0035868105 0.0006408989
0.08390891 -0.17060441 -0.003904599 -0.009700864 0.14022852 0.0100639425 0.20287308 -8.4476905e-12
-0.00018083407 -0.02221739 0.13394886 0.12905362 0.26498568 0.0013038557 -0.0001105328 0.2099879
4.4512006e-05 0.18307297 6.1892894e-07 -0.31403834 0.5010556 -0.021845113 0.0010338414 9.736135e-06
-6.211912e-05 -0.0014089261 0.37741223 3.8967335e-10 -0.2204223 0.07041042 -0.011774953 -0.029768858
-0.023958854 -0.012528616 -0.00052908214 -0.16708095 0.09264922 0.48502094 -0.00050083856 3.0745784e-10
-0.030717753 -0.13232344 -0.05102868 0.12943739 0.0007738041 0.06819424 3.019413e-05 -0.012173985
-0.007843933 1.4858025e-17 -0.04723451 0.039186276 -9.613078e-28 6.4501654e-11 -0.014995388 2.4548937e-05
0.14259697 -0.16864976 -0.008293292 -0.038297866 0.03298314 -0.003333086 -0.020997936 2.3393093e-06
0.07929697 0.16994226 -0.038551923 0.00017331856 -0.06960289 -0.23159899 0.14073749 2.300177e-39
-1.2336643e-05 -0.0563624 0.15679613 0.025181463 0.06569858 2.8283702e-07 6.956147e-17 -0.03422423
00000000: a524 cdb7 9e72 213e e815 0bb7 d43d aabd
00000010: e4b8 6c3d 45bd f7bc df01 5237 1164 8fa4
00000020: 8859 43b7 6b36 ccbb 4542 47bd ecdb 26ae
00000030: f98e 42bd ced6 953d 92ce b73d 7914 98bc
00000040: aafd 0e3e 0b1c e8bb cc21 00b8 754b a33c
00000050: 3cd9 803c 7eb6 2c3d 135d dfba ba24 3936
00000060: 7e0b 933d 0eed bf3d c8f0 46bd 301d 9e3d
00000070: 4440 44bb c05a 623d 797c e0b9 5b4f a03a
00000080: db5c 9c38 82f1 ec98 52c4 cebd 5370 c93c
00000090: 77c5 1c8f 5564 3c2f 8754 1a3d 272d f0b7
000000a0: 8aec 4ebd 79bf 1bbd a6b9 e3bb 0f2e aabc
000000b0: 8e3f 9a3c 787f a13b ccb0 c63b d280 4aae
000000c0: f24b 4ebb 6120 2bbc c111 e3bc 5be0 9db8
000000d0: 7391 863c 8193 e43d cb70 ac3d 9adb 8e81
000000e0: 751d 68b3 b7bb f1bc 2d9b 24bd 4176 16bc
000000f0: f580 ef3b b0df c632 1cef f91e 9791 433d
00000100: 1c26 8634 9788 1f3d 0e20 ce35 883d 61bd
00000110: c689 583d f08d 2ebd 9485 c9b7 224c 80b6
00000120: 1ced 0ab8 920f 8abb 61e3 653d d240 9f2c
00000130: e776 c3bc 44bd 96bd b141 5cbc ac2d 4d3c
00000140: df9c dabd b713 da3a 0efb b53a cabe 2bbd
00000150: 8f38 c8bc 0d09 aeba e8da bab8 05a4 7cb6
00000160: 90ca 783b 694d 84bc 85fb a6bd 0af0 623d
00000170: 6016 9bbb f5ae c9bc 252f 31b9 0728 7cbd
00000180: b71e 65bb 5743 ab94 14ae 81bc 6662 c63b
00000190: 4289 ef8e bdf6 0433 ab5a c7bc 1789 0538
000001a0: 8e5d 243d 0212 133d 504a aebb ef48 163a
000001b0: 6ee0 af3b 1dd8 32bb 6575 68bd 798d df33
000001c0: 4a3d 40bb 79f5 8b3d 319e 76bb 192a 8137
000001d0: d678 b7bc e2e4 383d 1735 21bd 3c3b 1301
000001e0: e695 cc32 e532 1fbd 36e8 a03c bba2 3e3d
000001f0: dc75 11bd fc6b 3cb3 1f60 c922 41b3 12bd
00000200: e45c d4bb ab9c 8fbe 14e8 093a 7a3e 9b3d
00000210: 3130 87be dcf9 8abb 6ff4 4a3a 29dc b8ba
00000220: 1c3a b7ba 8273 4a3c fbb2 efb9 11ed 0d35
00000230: 7f71 cd3d 8dd6 2b3d 7cc4 7a3e f0f5 10bd
00000240: 3b46 853d a829 0b3b a3c2 98bb 5185 55be
00000250: 3094 9fbd 40b2 ffbd b2bd 7cbc c4db cfba
00000260: d659 a13c 2c3d 163e 12e0 c13d 4641 143e
00000270: 1289 99bc 4d8a 993d d82e 40bb 4bdc 053d
00000280: 0806 1cbc e479 b936 b716 71bc 5465 78bc
00000290: a556 1537 15bd d0b9 5f83 a13d 9773 483b
000002a0: 915b 0e3e cc0c 2bbe cc03 413d 7ea6 d73b
000002b0: 817d fcbc 908a 063c b210 6bbb ff01 283a
000002c0: 6fd8 ab3d ecb2 2ebe 4de4 7fbb 5ff0 1ebc
000002d0: 1198 0f3e 3ce3 243c f6bd 4f3e 049d 14ad
000002e0: 479e 3db9 3e01 b6bc e429 093e a226 043e
000002f0: 34ac 873e 23e6 aa3a d8cd e7b8 1107 573e
00000300: 67b2 3a38 7b77 3b3e 7924 2635 a2c9 a0be
00000310: 2e45 003f 86f4 b2bc f681 873a 6258 2337
00000320: f345 82b8 b7ab b8ba 2d3c c13e a639 d62f
00000330: 62b6 61be 5733 903d bceb 40bc d2dd f3bc
00000340: 5c45 c4bc d344 4dbc 1ab2 0aba 4517 2bbe
00000350: e0be bd3d aa54 f83e b54a 03ba d806 a92f
00000360: cca3 fbbc cc7f 07be 7303 51bd 3c8b 043e
00000370: 1dd9 4a3a 6ca9 8b3d 6749 fd37 6575 47bc
00000380: d783 00bc 850a 8923 f978 41bd ca81 203d
00000390: 4753 9892 34d7 8d2e 37af 75bc 71ee cd37
000003a0: f104 123e 86b2 2cbe 96e0 07bc 39de 1cbd
000003b0: 5419 073d e76f 5abb dd03 acbc 07fd 1c36
000003c0: 7366 a23d 5805 2e3e 9fe8 1dbd d9bc 3539
000003d0: f68b 8ebd 4928 6dbe 7d1d 103e f50b 1900
000003e0: 7af9 4eb7 43dc 66bd 2a8f 203e 5b49 ce3c
000003f0: fa8c 863d d3d8 9734 d865 a024 b52e 0cbd

layers.0.ff.3.bias f4 [32]
0.027908409 0.102539666 -0.121623404 -0.3079227 -0.17283884 0.22145964 -0.026895579 -0.12063554
-0.07644813 -0.16150458 -0.17584187 -0.01019546 0.023248753 -0.0873772 0.0030440968 -0.12433164
-0.015218984 0.13284627 0.20132217 0.015082705 0.24612528 -0.042873044 0.018683357 -0.33477968
-0.42869386 0.1220114 -0.049403727 0.21242534 0.16137357 0.16279007 0.074087925 0.03014208
00000000: 2da0 e43c 5100 d23d b115 f9bd 0ba8 9dbe
00000010: aafc 30be 51c6 623e 1e54 dcbc c40f f7bd
00000020: d690 9cbd 7561 25be e40f 34be dc0a 27bc
00000030: 2b74 be3c d1f2 b2bd 787f 473b 96a1 febd
00000040: 0c59 79bc da08 083e 6627 4e3e 731d 773c
00000050: 4408 7c3e a59b 2fbd d70d 993c 3e68 abbe
00000060: c37d dbbe 1de1 f93d 905b 4abd 0786 593e
00000070: 1d3f 253e 71b2 263e 69bb 973d 86ec f63c

layers.0.norm1.weight f4 [32]
0.34482056 0.07715873 0.61143714 0.4675273 0.5599426 -0.0024914062 0.7886937 0.51551116
0.62263066 0.2943042 0.6878293 0.9394547 0.5951715 0.36734065 0.66384643 0.50967085
0.007303689 0.5701902 0.22574446 0.79485285 0.41468635 0.019092571 0.0037525082 0.56287974
0.63813645 -0.0026852684 0.225789 0.79098344 0.5099627 1.1148236 0.7693657 0.6892169
00000000: 528c b03e 6505 9e3d 2587 1c3f bd5f ef3e
00000010: 6658 0f3f dc46 23bb d5e7 493f 8af8 033f
00000020: b964 1f3f 0aaf 963e 9515 303f 1a80 703f
00000030: 295d 183f 1314 bc3e d7f1 293f ca79 023f
00000040: c953 ef3b fcf7 113f 8e29 673e 7a7b 4b3f
00000050: c551 d43e 0668 9c3c a4ec 753b e318 103f
00000060: e95c 233f 54fb 2fbb 3b35 673e e47d 4a3f
00000070: ea8c 023f 8ab2 8e3f 27f5 443f 8570 303f

layers.0.norm1.bias f4 [32]
0.14431721 0.005582699 -0.5598987 0.36208257 -0.49283734 -5.2492775e-05 -0.40150556 0.41475254
-0.003451406 0.1342545 0.20696737 -0.34420604 0.4808473 -0.28158996 0.27653116 0.23318905
0.0011786644 0.31612355 0.073293075 -0.28105065 0.064417265 -0.0026185794 0.003933203 0.3786911
-0.21360052 -0.010128888 0.03689054 -0.37374714 -0.00906745 0.33079702 0.48548424 -0.2527967
00000000: e4c7 133e 13ef b63b 8555 0fbf e362 b93e
00000010: 2d55 fcbe b02b 5cb8 2392 cdbe 725a d43e
00000020: fc30 62bb 037a 093e 41ef 533e c63b b0be
00000030: 9e31 f63e 8f2c 90be 7e95 8d3e 1cc9 6e3e
00000040: 6a7d 9a3a f2da a13e ae1a 963d dfe5 8fbe
00000050: 33ed 833d 799c 2bbb 19e2 803b cde3 c13e
00000060: 18ba 5abe a3f3 25bc 891a 173d c95b bfbe
00000070: a48f 14bc 3a5e a93e 6491 f83e 926e 81be

layers.0.norm2.weight f4 [32]
-0.025504513 0.24648903 0.4557337 0.2800476 0.31131804 0.37706906 0.660807 1.0008373
0.22700925 0.0013859158 1.0648503 0.113344006 0.40403354 0.271445 0.6193967 0.34710127
0.015665242 0.13383085 0.26198292 0.33935037 1.0331146 0.118952245 0.033736717 0.81316286
0.87953234 0.73109585 0.010015752 0.21303172 0.4863383 0.38404456 0.2626402 0.1570003
00000000: d7ee d0bc 9f67 7c3e ed55 e93e 6662 8f3e
00000010: 1465 9f3e 320f c13e a62a 293f 701b 803f
00000020: 1d75 683e 9ea7 b53a 044d 883f e720 e83d
00000030: 7cdd ce3e d7fa 8a3e c890 1e3f 42b7 b13e
00000040: 6554 803c f40a 093e a022 863e 55bf ad3e
00000050: 193d 843f 3c9d f33d 832f 0a3d 712b 503f
00000060: 0829 613f 1929 3b3f 1c19 243c fd24 5a3e
00000070: 5501 f93e 7da1 c43e c778 863e b0c4 203e

layers.0.norm2.bias f4 [32]
0.0036197894 0.054506443 -0.16080499 0.09310767 -0.272746 -0.047447648 0.07528291 0.1849821
-0.11230135 0.004447385 0.0068202284 -0.032824885 0.13265568 -0.13171491 0.16590223 -0.052879553
-0.00034001865 0.042795148 0.088805266 -0.06965481 -0.073670164 -0.020901568 0.006028683 0.14884801
-0.057983775 -0.104065806 -0.0030897874 0.07019044 -0.11602917 0.37491083 0.3221537 0.112707175
00000000: fd39 6d3b 2642 5f3d 10aa 24be 3caf be3d
00000010: 5da5 8bbe 7758 42bd ed2d 9a3d f36b 3d3e
00000020: 40fe e5bd 5fbb 913b 397c df3b 6373 06bd
00000030: e4d6 073e 46e0 06be 46e2 293e 3b98 58bd
00000040: 8844 b2b9 f749 2f3d 89df b53d 2ea7 8ebd
00000050: 62e0 96bd c439 abbc 428c c53b 9d6b 183e
00000060: 6580 6dbd 7420 d5bd 087e 4abb 01c0 8f3d
00000070: b4a0 edbd 50f4 bf3e 54f1 a43e 05d3 e63d

classifier.weight f4 [3, 32]
0.028803565 0.012000163 -0.041265137 -0.07195296 0.026804956 -0.025720647 -0.04632837 -0.03940728
-0.10628666 -0.023137216 0.039438613 -0.013571058 0.026727866 -0.06547005 -0.022149477 -0.046552904
0.01927149 -0.08947112 0.019359041 0.039380703 -0.078409694 -0.061173074 0.034694653 -0.08286221
0.0011873405 0.06630408 -0.12510894 0.014007147 -0.12339366 -0.03588827 0.11516296 -0.07866603
0.034442496 0.016855637 0.07462001 -0.048180185 0.029694548 -0.06969151 -0.048817705 0.14809144
0.14091663 -0.040147375 0.049648214 -0.034408614 0.03086979 -0.087985694 -0.0056889076 -0.038475443
0.022439126 -0.07098434 -0.005456191 0.02971788 -0.040939383 -0.059936758 0.025302086 -0.019638993
-0.045041464 0.011618838 -0.092064925 0.04754849 -0.113525316 -0.056388665 -0.080091655 -0.068142846
-6.8645764e-05 0.02007673 -0.03909723 -0.06103707 0.020520665 -0.025131516 -0.040476225 -0.06521291
-0.0771206 -0.04592772 0.06620679 0.0031088234 0.009563328 -0.07403226 -0.028265128 -0.056239378
0.025261985 -0.10427038 0.03379448 0.053843576 -0.11253211 -0.08620192 0.052418213 -0.101467036
-0.032431755 0.058068853 -0.1071305 0.0460475 -0.09631644 -0.044833876 0.0880635 -0.061828174
00000000: 74f5 eb3c 559c 443c a205 29bd 135c 93bd
00000010: 1196 db3c 1bb4 d2bc d1c2 3dbd 8769 21bd
00000020: d2ac d9bd 428a bdbc 628a 213d 2559 5ebc
00000030: 66f4 da3c 2915 86bd d272 b5bc 42ae 3ebd
00000040: 3edf 9d3c a23c b7bd da96 9e3c a94d 213d
00000050: 4395 a0bd 9e90 7abd fb1b 0e3d aab3 a9bd
00000060: 89a0 9b3a 6fca 873d 8f1c 00be 3c7e 653c
00000070: d1b5 fcbd 94ff 12bd 8fda eb3d a81b a1bd
00000080: 9313 0d3d d514 8a3c 60d2 983d 9658 45bd
00000090: fb41 f33c 6cba 8ebd 13f5 47bd 48a5 173e
000000a0: 734c 103e 9371 24bd ed5b 4b3d 0cf0 0cbd
000000b0: a4e2 fc3c d831 b4bd 046a babb 6d98 1dbd
000000c0: 42d2 b73c 3d60 91bd d9c9 b2bb e972 f33c
000000d0: 0eb0 27bd 3f80 75bd 5246 cf3c f4e1 a0bc
000000e0: 667d 38bd f05c 3e3c 898c bcbd 35c2 423d
000000f0: f67f e8bd cdf7 66bd 1807 a4bd 7a8e 8bbd
00000100: eaf5 8fb8 f477 a43c 6b24 20bd 0202 7abd
00000110: f41a a83c 9ce0 cdbc 66ca 25bd 598e 85bd
00000120: 68f1 9dbd b41e 3cbd 6d97 873d 67bd 4b3b
00000130: 81af 1c3c 3a9e 97bd 458c e7bc 435b 66bd
00000140: 39f2 ce3c b68b d5bd 156c 0a3d 158b 5c3d
00000150: 3c77 e6bd a28a b0bd 7bb4 563d f3cd cfbd
00000160: 29d7 04bd 9bd9 6d3d 3c67 dbbd 4e9c 3c3d
00000170: 8e41 c5bd baa3 37bd a35a b43d 8a3f 7dbd

classifier.bias f4 [3]
-0.09332929 0.045314275 -0.10296046
00000000: 6d23 bfbd 769b 393d efdc d2bd
